Heart_Failure.pth (torch, 3972 bytes, 5 tensors)

fc1.weight f4 [16, 11]
-0.09068757 0.12964325 -0.14051843 0.2133815 -0.1360258 0.0431739 -0.8784316 -0.39532974
-0.07736102 -0.041877247 -0.7446225 -0.3335016 0.0427388 -0.68092453 0.36545 0.49001387
0.023728596 -0.22134551 -0.19352005 -0.011583635 0.5106629 -0.30190447 0.12728511 -0.05932603
-0.41155943 -0.15477096 -0.54988277 0.19329363 0.021190401 0.11491599 -0.027296845 -0.759043
0.27710629 0.18819983 0.2708022 -0.37834445 0.051818673 -0.3653508 -0.17160547 -0.036318947
0.46256384 0.10259393 -0.77138424 0.15289044 -0.47902545 0.26071963 0.43398222 0.38406768
0.30400795 0.2458974 0.15390758 0.43433413 -0.13202313 -0.2733704 -0.26161376 -0.5811844
0.16418305 0.13501413 -0.22572523 -0.15236273 0.24138598 -0.16760217 -0.2996754 -0.32467026
0.062258884 -0.21306017 -0.33334842 -0.144738 -0.6302274 -0.4358305 -0.1076361 -0.17800702
-0.00841486 -0.1340473 -0.0718548 0.6861886 -0.27852136 0.13601188 -0.4297456 -0.11148759
0.3162763 -0.4274115 0.0120327985 -0.0020793614 -0.52061194 0.17200598 0.6376766 0.3650732
-0.3380197 0.06267792 -0.49420467 -0.05501791 0.08307077 0.2757473 -0.046072505 -0.260629
0.48174307 -0.31041536 0.6839187 -0.21377157 0.2732125 0.018358832 0.18682359 -0.66777295
0.44428205 -0.03385479 -0.18083797 0.22784981 0.057263833 -0.26306215 -0.07114437 0.29833582
-0.04567279 -0.024704471 -0.6250649 -0.7281985 0.15748018 0.09768105 0.14842181 0.063236885
0.30798247 -0.45540693 -0.020059971 0.6376049 0.13058382 0.11930569 0.09213688 0.016112678
-0.35086837 -0.31982905 -0.18050024 0.56400335 0.1916696 0.4614297 0.70527476 0.6060046
0.37786958 -0.09500404 0.0641299 0.013117006 -0.3170359 -0.68337107 0.28487787 0.4306386
-0.1606027 -0.23349707 0.2884458 -0.12779294 -0.093827434 0.21028125 -0.41625592 0.42179954
0.6927525 0.119975254 0.28362522 -0.30896825 -0.18629609 0.15245932 0.29687896 0.18029745
0.67723805 -0.3393642 0.07715635 0.0819852 -0.1639143 -0.13169876 0.4826823 0.25416186
0.42970982 -0.045888837 -0.34174988 0.17342511 -0.11458866 -0.3727221 -0.26177782 -0.21861358
00000000: 68ba b9bd 33c1 043e 10e4 0fbe ae80 5a3e
00000010: 594a 0bbe 1ed7 303d e5e0 60bf a968 cabe
00000020: 746f 9ebd 7a87 2bbd 959f 3ebf b9c0 aabe
00000030: e10e 2f3d 1251 2ebf 431c bb3e 19e3 fa3e
00000040: 7962 c23c 66a8 62be 1f2a 46be 49c9 3dbc
00000050: ceba 023f 3993 9abe 0757 023e daff 72bd
00000060: ebb7 d2be 477c 1ebe 1ec5 0cbf c4ee 453e
00000070: 7e97 ad3c 1359 eb3d a29d dfbc a450 42bf
00000080: e0e0 8d3e 75b7 403e 96a6 8a3e 5db6 c1be
00000090: d13f 543d 430f bbbe 58b9 2fbe 2dc3 14bd
000000a0: 2bd5 ec3e c41c d23d 7079 45bf 508f 1c3e
000000b0: d342 f5be 0b7d 853e eb32 de3e 85a4 c43e
000000c0: eea6 9b3e 87cc 7b3e f399 1d3e 0b61 de3e
000000d0: 1231 07be 34f7 8bbe 3df2 85be 80c8 14bf
000000e0: 9a1f 283e 2541 0a3e 8424 67be fa04 1cbe
000000f0: e32d 773e e79f 2bbe 0e6f 99be 2e3b a6be
00000100: 2c03 7f3d 722c 5abe a5ac aabe 3336 14be
00000110: 9556 21bf 2d25 dfbe 5170 dcbd 7947 36be
00000120: 7bde 09bc b243 09be 9c28 93bd 0eaa 2f3f
00000130: 5a9a 8ebe b346 0b3e 9e07 dcbe 9b53 e4bd
00000140: f8ee a13e aed5 dabe 3725 453c e545 08bb
00000150: d346 05bf 5622 303e c63e 233f e0ea ba3e
00000160: eb10 adbe 485d 803d 6508 fdbe 765a 61bd
00000170: 0221 aa3d c02e 8d3e 86b6 3cbd 2a71 85be
00000180: 07a7 f63e c3ee 9ebe 4c15 2f3f efe6 5abe
00000190: 82e2 8b3e 4365 963c af4e 3f3e 2bf3 2abf
000001a0: f078 e33e 52ab 0abd 972d 39be 7651 693e
000001b0: 7b8d 6a3d 15b0 86be 24b4 91bd 79bf 983e
000001c0: 6413 3bbd 0861 cabc 4104 20bf 386b 3abf
000001d0: 7c42 213e 010d c83d e3fb 173e 5782 813d
000001e0: e1af 9d3e 192b e9be cf54 a4bc 133a 233f
000001f0: c4b7 053e 8b56 f43d 43b2 bc3d bcfe 833c
00000200: 05a5 b3be a2c0 a3be 0ed5 38be 8662 103f
00000210: 0945 443e 8340 ec3e e38c 343f 1e23 1b3f
00000220: 1f78 c13e 7a91 c2bd 8956 833d b6e8 563c
00000230: 8852 a2be 68f1 2ebf 83db 913e aa7c dc3e
00000240: 0975 24be db19 6fbe 2baf 933e 27dc 02be
00000250: 9928 c0bd f853 573e 7f1f d5be 1cf6 d73e
00000260: 3a58 313f 96b5 f53d 5337 913e 1631 9ebe
00000270: 67c4 3ebe 4c1e 1c3e 8500 983e e59f 383e
00000280: 795f 2d3f 25c1 adbe 2604 9e3d dbe7 a73d
00000290: 26d9 27be 0adc 06be 2222 f73e 8121 823e
000002a0: ed02 dc3e eff5 3bbd d7f9 aebe 5a96 313e
000002b0: 76ad eabd 6ed5 bebe be07 86be 3ddc 5fbe

fc1.bias f4 [16]
0.05167903 -0.06326586 -0.32668948 0.16145442 -0.06785881 0.77361655 0.17073461 -0.12697446
-0.17975233 -0.47032902 0.44659403 -0.027091827 -0.18915927 0.09785137 -0.15471682 0.26067036
00000000: 64ad 533d 8891 81bd d843 a7be 4f54 253e
00000010: 8ff9 8abd bc0b 463f 0ed5 2e3e 9805 02be
00000020: ff10 38be f7ce f0be f9a7 e43e aeef ddbc
00000030: f8b2 41be 4d66 c83d 166e 1ebe 9676 853e

fc2.weight f4 [8, 16]
0.6812054 -0.08872199 -0.22805 -0.41331214 0.4130783 0.57948583 -0.5061879 -0.874937
-0.19410996 -0.8111239 0.6757113 -0.49942964 -0.53057843 -0.48746786 0.7565397 0.38290942
-0.090436645 0.39570186 1.0845324 0.49269506 -0.3372549 -0.011765672 0.1765674 -0.065476224
0.25091594 0.54871494 -0.4472954 0.68275684 0.10762334 0.18212533 0.1492139 -0.26931688
0.50869536 0.66332257 0.45896637 -0.1751745 -0.7315776 -0.37555885 -0.06859795 -0.22707179
-0.507967 0.0046473886 -0.31358922 0.12129969 0.3323974 0.65314806 0.2650693 -0.8321176
0.041424517 0.32160845 0.7509475 0.4501616 -0.65118206 0.21225846 0.47416693 0.06715455
0.22237676 0.46073663 -0.10974926 0.3473679 0.20367864 0.19421408 0.19870193 -0.45036906
0.6957141 -0.23603188 -0.2452046 -0.1348627 0.28801054 0.5386025 -0.4527419 -0.86765593
-0.11546951 -0.6307624 0.4371636 -0.43415043 -0.8134868 -0.5830893 0.6235583 0.4694491
0.7765065 0.1618463 -0.25584 -0.2595948 0.37797254 0.43425676 -0.65251136 -0.0665704
-0.49350688 -0.7024733 0.6834335 -0.44276267 -0.38888258 -0.3008818 0.6291291 0.26795253
-1.0974038 0.607597 0.44046107 0.13938509 -0.10873673 0.11482594 0.21841128 -0.19114943
0.60036176 -0.02481602 -0.6498628 -0.18710233 -0.01713383 -0.34164685 -0.05767437 -0.2092477
-0.4393851 0.507135 0.9492481 0.10521253 -0.34346753 0.3206306 0.22367384 0.006720297
0.11762178 0.685942 -0.15876892 0.69760513 0.096948735 0.1816112 0.08701661 -0.33946475
00000000: 7a63 2e3f e0b3 b5bd f085 69be a69d d3be
00000010: 007f d33e 2f59 143f 8895 01bf dffb 5fbf
00000020: c3c4 46be d1a5 4fbf 6afb 2c3f 3eb5 ffbe
00000030: fdd3 07bf 6395 f9be 96ac 413f b40c c43e
00000040: d936 b9bd 6f99 ca3e f5d1 8a3f 8742 fc3e
00000050: adac acbe cec4 40bc 16ce 343e 6618 86bd
00000060: 0e78 803e 9578 0c3f e703 e5be 27c9 2e3f
00000070: a069 dc3d 107f 3a3e 87cb 183e e7e3 89be
00000080: dc39 023f 82cf 293f a4fd ea3e f260 33be
00000090: ab48 3bbf 4049 c0be 157d 8cbd 8285 68be
000000a0: 200a 02bf 1f49 983b c48e a0be f96b f83d
000000b0: fe2f aa3e b634 273f 2ab7 873e a905 55bf
000000c0: c1ac 293d dda9 a43e 183e 403f 957b e63e
000000d0: deb3 26bf 485a 593e 02c6 f23e 5388 893d
000000e0: bcb6 633e ace5 eb3e 38c4 e0bd 35da b13e
000000f0: 2291 503e 0ee0 463e 8578 4b3e c696 e6be
00000100: 521a 323f 57b2 71be ea16 7bbe 7319 0abe
00000110: 1e76 933e dae1 093f c9cd e7be b31e 5ebf
00000120: 477b ecbd a579 21bf e8d3 df3e f748 debe
00000130: ac40 50bf 5745 15bf 84a1 1f3f a25b f03e
00000140: 21c9 463f 09bb 253e 76fd 82be 9ce9 84be
00000150: 9e85 c13e e756 de3e fc0a 27bf 1056 88bd
00000160: efac fcbe 4ad5 33bf 7ff5 2e3f cab1 e2be
00000170: 9e1b c7be 2e0d 9abe 9b0e 213f 1331 893e
00000180: ba77 8cbf 7a8b 1b3f 1d84 e13e f7ba 0e3e
00000190: 5db1 debd dd29 eb3d 35a7 5f3e adbc 43be
000001a0: 4fb1 193f f74a cbbc 695d 26bf c197 3fbe
000001b0: 3f5c 8cbc 56ec aebe f63b 6cbd 0745 56be
000001c0: 15f7 e0be 99d3 013f ec01 733f ab79 d73d
000001d0: fada afbe b229 a43e c10a 653e f035 dc3b
000001e0: b0e3 f03d e599 2f3f 5294 22be 4096 323f
000001f0: 0f8d c63d 49f8 393e c435 b23d 53ce adbe

fc2.bias f4 [8]
0.2066913 -0.33049554 -0.042456675 -0.23348565 0.47577828 0.06915818 -0.048774272 -0.087258175
00000000: e2a6 533e b636 a9be 0de7 2dbd dd16 6fbe
00000010: 3699 f33e cea2 8d3d 88c7 47bd 6ab4 b2bd

output.weight f4 [1, 8]
-0.9430816 0.75701004 1.0313671 0.64722145 -1.56044 -0.93070394 2.2441657 0.96277004
00000000: cc6d 71bf 69cb 413f d603 843f 4eb0 253f
00000010: 7fbc c7bf 9d42 6ebf 69a0 0f40 1978 763f
